…
m=0.8, warmup_bias_lr=0.1, box=7.5, cls=0.5, dfl=1.5, pose=12.0, kobj=1.0, nbs=64, hsv_h=0.015, hsv_s=0.7, hsv_v=0.4, degrees=0.0, translate=0.1, scale=0.5, shear=0.0, perspective=0.0, flipud=0.0, fliplr=0.5, bgr=0.0, mosaic=1.0, mixup=0.0, copy_paste=0.0, copy_paste_mode=flip, auto_augment=randaugment, erasing=0.4, crop_fraction=1.0, cfg=None, tracker=botsort.yaml, save_dir=runs/detect/train2
Overriding model.yaml nc=80 with nc=6

                   from  n    params  module                                       arguments                     
  0                  -1  1      5280  ultralytics.nn.modules.conv.Conv             [3, 48, 6, 2, 2]              
  1                  -1  1     41664  ultralytics.nn.modules.conv.Conv             [48, 96, 3, 2]                
  2                  -1  2     65280  ultralytics.nn.modules.block.C3              [96, 96, 2]                   
  3                  -1  1    166272  ultralytics.nn.modules.conv.Conv             [96, 192, 3, 2]               
  4                  -1  4    444672  ultralytics.nn.modules.block.C3              [192, 192, 4]                 
  5                  -1  1    664320  ultralytics.nn.modules.conv.Conv             [192, 384, 3, 2]              
  6                  -1  6   2512896  ultralytics.nn.modules.block.C3              [384, 384, 6]                 
  7                  -1  1   2655744  ultralytics.nn.modules.conv.Conv             [384, 768, 3, 2]              
  8                  -1  2   4134912  ultralytics.nn.modules.block.C3              [768, 768, 2]                 
  9                  -1  1   1476864  ultralytics.nn.modules.block.SPPF            [768, 768, 5]                 
 10                  -1  1    295680  ultralytics.nn.modules.conv.Conv             [768, 384, 1, 1]              
 11                  -1  1         0  torch.nn.modules.upsampling.Upsample         [None, 2, 'nearest']          
 12             [-1, 6]  1         0  ultralytics.nn.modules.conv.Concat           [1]                           
 13                  -1  2   1182720  ultralytics.nn.modules.block.C3              [768, 384, 2, False]          
 14                  -1  1     74112  ultralytics.nn.modules.conv.Conv             [384, 192, 1, 1]              
 15                  -1  1         0  torch.nn.modules.upsampling.Upsample         [None, 2, 'nearest']          
 16             [-1, 4]  1         0  ultralytics.nn.modules.conv.Concat           [1]                           
 17                  -1  2    296448  ultralytics.nn.modules.block.C3              [384, 192, 2, False]          
 18                  -1  1    332160  ultralytics.nn.modules.conv.Conv             [192, 192, 3, 2]              
 19            [-1, 14]  1         0  ultralytics.nn.modules.conv.Concat           [1]                           
 20                  -1  2   1035264  ultralytics.nn.modules.block.C3              [384, 384, 2, False]          
 21                  -1  1   1327872  ultralytics.nn.modules.conv.Conv             [384, 384, 3, 2]              
 22            [-1, 10]  1         0  ultralytics.nn.modules.conv.Concat           [1]                           
 23                  -1  2   4134912  ultralytics.nn.modules.block.C3              [768, 768, 2, False]          
 24        [17, 20, 23]  1   4221538  ultralytics.nn.modules.head.Detect           [6, [192, 384, 768]]          
YOLOv5m summary: 197 layers, 25,068,610 parameters, 25,068,594 gradients, 64.4 GFLOPs

Transferred 553/559 items from pretrained weights
Freezing layer 'model.24.dfl.conv.weight'
[34m[1mAMP: [0mrunning Automatic Mixed Precision (AMP) checks...
[34m[1mAMP: [0mchecks passed âœ…
[34m[1mtrain: [0mScanning /home/riley.koppang/final_project/Player_detect-1/Player_
…
